…
Loading checkpoint shards: 100%|██████████| 3/3 [00:13<00:00,  4.21s/it]Loading checkpoint shards: 100%|██████████| 3/3 [00:13<00:00,  4.42s/it]
Loading checkpoint shards:   0%|          | 0/2 [00:00<?, ?it/s]Loading checkpoint shards: 100%|██████████| 2/2 [00:12<00:00,  5.89s/it]Loading checkpoint shards: 100%|██████████| 2/2 [00:12<00:00,  6.46s/it]
Loading checkpoint shards:   0%|          | 0/2 [00:00<?, ?it/s]Loading checkpoint shards: 100%|██████████| 3/3 [00:13<00:00,  4.16s/it]Loading checkpoint shards: 100%|██████████| 3/3 [00:13<00:00,  4.45s/it]
Actor(
  (model): LlamaForCausalLM(
    (model): LlamaModel(
      (embed_tokens): Embedding(32000, 4096, padding_idx=0)
      (layers): ModuleList(
        (0-31): 32 x LlamaDecoderLayer(
          (self_attn): LlamaAttention(
            (q_proj): Linear(in_features=4096, out_features=4096, bias=False)
            (k_proj): Linear(in_features=4096, out_features=4096, bias=False)
            (v_proj): Linear(in_features=4096, out_features=4096, bias=False)
            (o_proj): Linear(in_features=4096, out_features=4096, bias=False)
            (rotary_emb): LlamaRotaryEmbedding()
          )
          (mlp): LlamaMLP(
            (gate_proj): Linear(in_features=4096, out_features=11008, bias=False)
            (up_proj): Linear(in_features=4096, out_features=11008, bias=False)
            (down_proj): Linear(in_features=11008, out_features=4096, bias=False)
            (act_fn): SiLU()
          )
          (input_layernorm): LlamaRMSNorm()
          (post_attention_layernorm): LlamaRMSNorm()
        )
      )
      (norm): LlamaRMSNorm()
    )
    (lm_head): Linear(in_features=4096, out_features=32000, bias=False)
  )
)
CriticModel(
  (model): LlamaModel(
    (embed_tokens): Embedding(32000, 4096, padding_idx=2)
    (layers): ModuleList(
      (0-31): 32 x LlamaDecoderLayer(
        (self_attn): LlamaAttention(
          (q_proj): Linear(in_features=4096, out_features=4096, bias=False)
          (k_proj): Linear(in_features=4096, out_features=4096, bias=False)
          (v_proj): Linear(in_features=4096, out_features=4096, bias=False)
          (o_proj): Linear(in_features=4096, out_features=4096, bias=False)
          (rotary_emb): LlamaRotaryEmbedding()
        )
        (mlp): LlamaMLP(
          (gate_proj): Linear(in_features=4096, out_features=11008, bias=False)
          (up_proj): Linear(in_features=4096, out_features=11008, bias=False)
          (down_proj): Linear(in_features=11008, out_features=4096, bias=False)
          (act_fn): SiLU()
        )
        (input_layernorm): LlamaRMSNorm()
        (post_attention_layernorm): LlamaRMSNorm()
      )
    )
    (norm): LlamaRMSNorm()
  )
  (value_head): Linear(in_features=4096, out_features=1, bias=False)
)
Loading checkpoint shards:   0%|          | 0/2 [00:00<?, ?it/s]Installed CUDA version 12.3 does not match the version torch was compiled with 12.1 but since the APIs are compatible, accepting this combination
Using /root/.cache/torch_extensions/py310_cu121 as PyTorch extensions root...
Detected CUDA files, patching ldflags
Emitting ninja build file /root/.cache/torch_extensions/py310_cu121/cpu_adam/build.ninja...
…
