…
Loading checkpoint shards: 100%|██████████| 3/3 [00:14<00:00,  4.69s/it]Loading checkpoint shards: 100%|██████████| 3/3 [00:14<00:00,  4.92s/it]
Loading checkpoint shards: 100%|██████████| 3/3 [00:14<00:00,  4.74s/it]Loading checkpoint shards: 100%|██████████| 3/3 [00:14<00:00,  4.99s/it]
Special tokens have been added in the vocabulary, make sure the associated word embeddings are fine-tuned or trained.
Loading checkpoint shards:   0%|          | 0/4 [00:00<?, ?it/s]Special tokens have been added in the vocabulary, make sure the associated word embeddings are fine-tuned or trained.
Actor(
  (model): LlamaForCausalLM(
    (model): LlamaModel(
      (embed_tokens): Embedding(128256, 4096)
      (layers): ModuleList(
        (0-31): 32 x LlamaDecoderLayer(
          (self_attn): LlamaAttention(
            (q_proj): Linear(in_features=4096, out_features=4096, bias=False)
            (k_proj): Linear(in_features=4096, out_features=1024, bias=False)
            (v_proj): Linear(in_features=4096, out_features=1024, bias=False)
            (o_proj): Linear(in_features=4096, out_features=4096, bias=False)
            (rotary_emb): LlamaRotaryEmbedding()
          )
          (mlp): LlamaMLP(
            (gate_proj): Linear(in_features=4096, out_features=14336, bias=False)
            (up_proj): Linear(in_features=4096, out_features=14336, bias=False)
            (down_proj): Linear(in_features=14336, out_features=4096, bias=False)
            (act_fn): SiLU()
          )
          (input_layernorm): LlamaRMSNorm()
          (post_attention_layernorm): LlamaRMSNorm()
        )
      )
      (norm): LlamaRMSNorm()
    )
    (lm_head): Linear(in_features=4096, out_features=128256, bias=False)
  )
)
CriticModel(
  (model): LlamaModel(
    (embed_tokens): Embedding(32000, 4096, padding_idx=2)
    (layers): ModuleList(
      (0-31): 32 x LlamaDecoderLayer(
        (self_attn): LlamaAttention(
          (q_proj): Linear(in_features=4096, out_features=4096, bias=False)
          (k_proj): Linear(in_features=4096, out_features=4096, bias=False)
          (v_proj): Linear(in_features=4096, out_features=4096, bias=False)
          (o_proj): Linear(in_features=4096, out_features=4096, bias=False)
          (rotary_emb): LlamaRotaryEmbedding()
        )
        (mlp): LlamaMLP(
          (gate_proj): Linear(in_features=4096, out_features=11008, bias=False)
          (up_proj): Linear(in_features=4096, out_features=11008, bias=False)
          (down_proj): Linear(in_features=11008, out_features=4096, bias=False)
          (act_fn): SiLU()
        )
        (input_layernorm): LlamaRMSNorm()
        (post_attention_layernorm): LlamaRMSNorm()
      )
    )
    (norm): LlamaRMSNorm()
  )
  (value_head): Linear(in_features=4096, out_features=1, bias=False)
)
Loading checkpoint shards:   0%|          | 0/4 [00:00<?, ?it/s]Loading checkpoint shards:   0%|          | 0/4 [00:00<?, ?it/s]Loading checkpoint shards:  50%|█████     | 2/4 [00:07<00:06,  3.48s/it]Loading checkpoint shards:  25%|██▌       | 1/4 [00:03<00:11,  3.73s/it]Loading checkpoint shards:  25%|██▌       | 1/4 [00:04<00:13,  4.50s/it]Loading checkpoint shards:  25%|██▌       | 1/4 [00:04<00:12,  4.32s/it]Loading checkpoint shards:  75%|███████▌  | 3/4 [00:12<00:04,  4.19s/it]Loading checkpoint shards: 100%|██████████| 4/4 [00:12<00:00,  2.70s/it]Loading checkpoint shards: 100%|██████████| 4/4 [00:12<00:00,  3.14s/it]
…
